torch.pt (torch, 888162 bytes, 12 tensors)

conv1.0.weight f4 [16, 1, 5, 5]
0.013770002 0.03189224 0.015780205 0.035013366 0.034835044 0.21154715 0.26503116 0.4784472
0.6242324 0.34084344 0.109961465 0.05835093 0.10023363 0.18284833 0.2399054 0.017819934
-0.41546914 -0.29855326 -0.03736831 0.055872668 -0.35499746 -0.4426273 -0.55158144 -0.117650054
-0.0859213 0.26919198 0.22632252 -0.1354655 -0.40073952 -0.270507 0.31335488 0.2656926
0.13241604 -0.37353063 -0.34156334 0.41057548 0.28383604 -0.18546085 -0.45921105 -0.23660813
0.35819188 0.030803556 0.056812365 -0.32746336 -0.14699495 -0.074262224 0.19821773 -0.23483676
-0.055422585 -0.25314733 0.3791681 0.2884947 0.5532079 0.45218125 0.3831844 0.32218164
0.23593941 0.2433887 0.28625512 0.1511382 -0.23543091 -0.056523368 -0.1433694 0.068146534
0.13131772 -0.53908503 -0.3507038 -0.5480281 -0.41211298 -0.15082388 -0.5302793 -0.47038126
-0.39033097 -0.3033921 -0.0032964058 0.13899821 0.15584959 -0.26409206 -0.056593683 0.06700721
-0.020757511 -0.19137903 -0.30175042 0.11601046 -0.03339343 0.34992334 -0.23616065 -0.28819188
0.036633383 0.06665994 0.40621176 -0.12193297 -0.033048604 0.06344231 -0.020704566 0.2777573
-0.18407884 -0.03572155 0.20194566 -0.16623038 0.39196968 0.48512274 0.22562742 0.2529521
-0.08318403 -0.00987091 0.10867815 0.08777409 0.06308397 -0.3340713 -0.088689536 -0.09419908
-0.28287148 -0.3322499 -0.39937255 -0.17024034 -0.43880922 -0.16455847 -0.33800897 0.026163705
-0.17254712 -0.12850651 -0.23218128 0.0024925773 0.23944108 -0.39503768 -0.5723485 -0.5784078
-0.2886548 -0.48407966 -0.25893304 -0.016252248 -0.24989794 -0.07124424 -0.015977338 0.03274798
0.11858819 0.16361186 0.28019935 -0.08816786 0.384362 0.3331258 0.43417418 0.45210558
0.037407886 0.3613961 0.22615583 0.18113753 0.3201313 0.33000198 -0.31733492 -0.6169933
-0.64148027 -0.20818408 -0.30170384 -0.056673244 -0.26256302 -0.086536095 0.16614047 0.046800777
0.60599977 0.686704 0.6617407 0.42987034 0.21092436 0.3760937 0.29909915 0.17263195
-0.105470166 0.065687865 -0.38334137 -0.5013461 -0.45076716 -0.07399586 0.037234157 -0.25129282
-0.3628088 0.08318502 0.35334414 0.008629002 -0.5022362 -0.18322365 0.1922341 0.49138886
-0.03429321 -0.49278185 0.22299936 0.47209498 0.30148497 -0.42835817 0.075822994 0.26950198
0.22161712 0.020445969 -0.11423139 0.18081865 0.13699402 -0.10208578 -0.30236772 -0.03642739
0.106486216 0.18158732 0.35901597 0.2185771 0.13877614 0.109189324 0.003172287 -0.076596774
0.14818545 -0.090794265 0.072608605 0.09370539 -0.17039375 0.059801277 -0.24333207 0.00070065766
-0.028980859 -0.27541974 -0.021815084 -0.11886729 0.051811792 -0.1284134 -0.19088823 -0.11081821
-0.12573397 -0.2754637 0.05701058 0.1603621 0.27272457 0.15864578 -0.16954209 -0.12269121
0.19375116 0.19206378 0.2104629 -0.19027118 -0.26156977 -0.27891713 -0.10404315 -0.056379844
-0.18899417 -0.24511425 -0.20700952 -0.34259632 -0.17636168 0.1534379 -0.15911193 -0.32107276
-0.26805604 -0.21844938 0.020508472 0.266602 0.38508567 0.05108387 -0.23907346 -0.4169886
00000000: 939b 613c 70a1 023d 7d45 813c 2d6a 0f3d
00000010: 31af 0e3d d19f 583e 2ab2 873e 08f7 f43e
00000020: b2cd 1f3f 0883 ae3e 7a33 e13d 6301 6f3d
00000030: 4a47 cd3d 983c 3b3e c3a9 753e 1cfb 913c
00000040: 5fb8 d4be f9db 98be 830f 19bd bdda 643d
00000050: 3ac2 b5be 0ca0 e2be 7134 0dbf 83f2 f0bd
00000060: 82f7 afbd 88d3 893e 17c1 673e 78b7 0abe
00000070: bb2d cdbe e57f 8abe 0d70 a03e dc08 883e
00000080: 1298 073e 683f bfbe 64e1 aebe f336 d23e
00000090: f552 913e 73e9 3dbe b61d ebbe 6749 72be
000000a0: ed64 b73e bd57 fc3c 15b4 683d 47a9 a7be
000000b0: d885 16be cb16 98bd 97f9 4a3e 0c79 70be
000000c0: cb02 63bd 879c 81be 5222 c23e 94b5 933e
000000d0: 089f 0d3f 4d84 e73e bf30 c43e fef4 a43e
000000e0: 1a9a 713e e33a 793e 0890 923e f9c3 1a3e
000000f0: cd14 71be 0c85 67bd 6ecf 12be 6990 8b3d
00000100: 2778 063e 7a01 0abf 738f b3be 924b 0cbf
00000110: 7900 d3be 9371 1abe 62c0 07bf d0d5 f0be
00000120: 76d9 c7be 3656 9bbe 8308 58bb 8c55 0e3e
00000130: 0997 1f3e 1337 87be c7ce 67bd 133b 893d
00000140: a80b aabc ddf8 43be 087f 9abe e496 ed3d
00000150: 8dc7 08bd 2729 b33e 19d4 71be e38d 93be
00000160: e30c 163d 0285 883d fdfa cf3e feb7 f9bd
00000170: f95d 07bd 0bee 813d 9f9c a9bc 3436 8e3e
00000180: 2a7f 3cbe c350 12bd d8ca 4e3e 4c38 2abe
00000190: 40b0 c83e 0262 f83e e00a 673e f082 813e
000001a0: 645c aabd 99b9 21bc a692 de3d e7c2 b33d
000001b0: 2b32 813d 650b abbe dca2 b5bd 72eb c0bd
000001c0: 88d4 90be a91c aabe 8f7a ccbe 7c53 2ebe
000001d0: 9aab e0be 0482 28be 830f adbe 4455 d63c
000001e0: 31b0 30be 3697 03be eec0 6dbe 825a 233b
000001f0: 0b30 753e 6142 cabe 6e85 12bf 8912 14bf
00000200: 90ca 93be 4ad9 f7be df92 84be 6f23 85bc
00000210: 3fe5 7fbe 80e8 91bd e8e2 82bc bf22 063d
00000220: 5dde f23d de89 273e 4a76 8f3e 5a91 b4bd
00000230: 19cb c43e 778f aa3e 144c de3e 627a e73e
00000240: 0339 193d e908 b93e 6595 673e 1e7c 393e
00000250: 40e8 a33e 05f6 a83e b979 a2be 46f3 1dbf
00000260: 0d38 24bf 352e 55be ed78 9abe 3422 68bd
00000270: a96e 86be d639 b1bd ba20 2a3e 2cb2 3f3d
00000280: cd22 1b3f d5cb 2f3f d767 293f f717 dc3e
00000290: 8efc 573e 5a8f c03e 8623 993e 6ec6 303e
000002a0: be00 d8bd 5c87 863d 5245 c4be 3858 00bf
000002b0: f4ca e6be 248b 97bd d882 183d 74a9 80be
000002c0: 13c2 b9be e85c aa3d 86e9 b43e a860 0d3c
000002d0: 8d92 00bf fb9e 3bbe 04d9 443e 5297 fb3e
000002e0: 0977 0cbd e74d fcbe f259 643e 6fb6 f13e
000002f0: 3d5c 9a3e c351 dbbe 1649 9b3d 2afc 893e
00000300: 99ef 623e 4e7e a73c 26f2 e9bd 8628 393e
00000310: 2948 0c3e 5912 d1bd f1cf 9abe e334 15bd
00000320: 7215 da3d 07f2 393e f1d0 b73e add2 5f3e
00000330: 551b 0e3e a79e df3d 25e6 4f3b c5de 9cbd
00000340: edbd 173e 58f2 b9bd d2b3 943d 9de8 bf3d
00000350: b37b 2ebe 2ff2 743d 0b2c 79be 57ac 373a
00000360: 4469 edbc d103 8dbe 8cb5 b2bc b270 f3bd
00000370: 9a38 543d cd7e 03be 3478 43be a8f4 e2bd
00000380: 68c0 00be 9409 8dbe ed83 693d f635 243e
00000390: 8ea2 8b3e 0a74 223e 719c 2dbe 8745 fbbd
000003a0: b466 463e 5eac 443e 9683 573e 73d6 42be
000003b0: 79ec 85be 3ace 8ebe 9314 d5bd 8dee 66bd
000003c0: b087 41be 3bff 7abe 4efa 53be c968 afbe
000003d0: 2898 34be d31e 1d3e 3dee 22be a663 a4be
000003e0: a43e 89be 32b1 5fbe 6201 a83c 0f80 883e
000003f0: f329 c53e 523d 513d accf 74be 887f d5be

conv1.0.bias f4 [16]
-0.0074532186 0.09597996 -0.0069011296 -0.0007069458 0.38675982 0.004618995 -0.008754487 -0.011746516
-0.013905414 0.6508481 -0.015167784 -0.016067088 -0.3521882 -0.0060691917 -0.03323221 -0.099559
00000000: 213a f4bb 2491 c43d df22 e2bb 5452 39ba
00000010: 6205 c63e f05a 973b fb6e 0fbc 7674 40bc
00000020: 89d3 63bc fb9d 263f 4c82 78bc 209f 83bc
00000030: 0352 b4be 12e0 c6bb 7f1e 08bd 97e5 cbbd

conv2.0.weight f4 [32, 16, 5, 5]
-0.05663177 0.009081443 0.03401956 -0.035809748 -0.06251952 0.06651866 0.029604971 -0.09237873
-0.14911959 -0.21185258 0.14377725 0.21345264 0.049271043 -0.035426304 0.065119416 -0.086675614
0.02004121 -0.019511363 0.030144945 0.1023808 -0.09936387 -0.06629445 -0.1314632 -0.024070762
-0.015632953 -0.049779102 -0.027613211 -0.073496655 0.010739127 0.05259253 -0.0054128007 -0.041922096
-0.0128270965 0.006910921 -0.041843142 -0.014354204 -0.0038428954 -0.10001284 -0.07545712 -0.15576904
0.019243345 -0.07004877 -0.07424176 0.046511885 -0.03321111 0.079548635 -0.06582205 -0.062358376
0.05892263 0.07603279 -0.036009256 -0.08316377 -0.06962955 -0.03425083 -0.07703392 -0.06343789
-0.13346046 -0.21916556 -0.2934689 -0.36070278 0.112498775 0.12738197 -0.009565367 -0.116609424
-0.12614688 -0.043664385 0.119113915 0.10296223 -0.044145927 0.063369945 -0.07130368 -0.037163418
-0.05644566 -0.019260643 0.08968019 0.059493475 0.01122564 -0.03840394 0.036378775 0.060795467
-0.027649779 0.045582846 -0.02159502 -0.032505646 -0.05873853 -0.025783168 -0.010068331 0.03070249
0.0034172267 -0.05457246 0.01138145 0.007302584 -0.011651297 -0.0087951105 -0.030730676 0.0064711412
-0.044668995 -0.07030111 -0.04508803 0.0018008994 -0.02805864 0.025439687 0.007509108 0.023320414
-0.014161895 -0.035057284 -0.122228526 -0.08650302 0.037454527 -0.010463748 0.04282072 0.0066030202
-0.037388377 -0.015068801 -0.10018605 0.04724554 0.054678205 -0.049551226 -0.052786168 -0.12284338
0.0242281 -0.03771445 -0.03684833 0.014648268 0.10425197 -0.05678955 -0.099399224 -0.075491555
-0.079461604 0.040582597 0.058215797 0.15710415 0.0849376 -0.01813512 0.05674043 -0.048585866
0.05745679 -0.01801837 -0.12505724 -0.033053637 -0.17992848 -0.15046479 -0.23715024 -0.16830489
-0.15113409 -0.057170656 -0.1514095 -0.09883114 -0.14745903 -0.23887849 0.033942156 0.07584337
-5.2543724e-05 0.07513971 0.026043927 0.05632559 0.07398063 0.12558578 0.03801307 0.0032057953
0.02198416 0.052823156 0.10755617 0.009231228 -0.035717905 -0.11825571 -0.026519017 -0.024987914
-0.070362866 -0.029558087 -0.07386228 -0.036228392 -0.119339384 -0.12582588 -0.14997 0.0677559
0.11290782 0.040509038 0.12617625 0.01643209 -0.035281904 0.04092803 0.010504567 0.020336518
-0.045347456 -0.1140552 -0.022868274 -0.036713924 -0.0058009387 0.04624116 -0.11706153 -0.050595503
-0.091413684 0.017200092 0.12054795 -0.0021179705 -0.114779525 -0.03595728 0.033311296 0.043920964
0.054992747 -0.033432007 -0.0071903947 -0.05013071 -0.014079136 -0.047450744 -0.06311542 -0.06879064
-0.10425967 -0.1337618 0.040807325 -0.022779768 -0.09545721 -0.08034386 -0.03905478 0.017940734
0.028285196 -0.0030169578 -0.044708323 0.017964996 0.035080202 0.027992358 -0.031901013 -0.021771027
0.09028778 0.012030475 -0.04356533 -0.04953771 -0.050607715 -0.011082604 0.044531886 0.01451115
-0.047343917 0.045514658 -0.011368135 0.11953807 0.042289216 0.013281285 -0.011954057 8.001091e-05
0.05823888 0.0027897544 0.014962247 0.029220806 -0.0066757407 -0.05032458 -0.056241293 -0.006370146
-0.0012781942 0.039044168 -0.09924586 -0.053435758 0.03502549 0.13065517 -0.028035725 0.008671612
00000000: b7f6 67bd 55ca 143c 1858 0b3d 3ead 12bd
00000010: 3c0a 80bd ef3a 883d 2086 f23c 0f31 bdbd
00000020: ceb2 18be e2ef 58be 583a 133e 5493 5a3e
00000030: 6fd0 493d 2c1b 11bd 545d 853d fc82 b1bd
00000040: 772d a43c 4bd6 9fbc 88f2 f63c 06ad d13d
00000050: 497f cbbd 62c5 87bd 4a9e 06be 0c30 c5bc
00000060: ae10 80bc 2ce5 4bbd 1a35 e2bc 6a85 96bd
00000070: 2af3 2f3c 446b 573d dd5d b1bb 81b6 2bbd
00000080: be28 52bc 0275 e23b b763 2bbd e52d 6bbc
00000090: 16d9 7bbb 88d3 ccbd 4389 9abd eb81 1fbe
000000a0: 38a4 9d3c bb75 8fbd 100c 98bd 3f83 3e3d
000000b0: 5f08 08bd 65ea a23d b6cd 86bd 7f6b 7fbd
000000c0: db58 713d 14b7 9b3d 717e 13bd c451 aabd
000000d0: f099 8ebd 994a 0cbd f6c3 9dbd b9eb 81bd
000000e0: dca9 08be f06c 60be 8e41 96be 09ae b8be
000000f0: c265 e63d 6b70 023e 0fb8 1cbc ecd0 eebd
00000100: a62c 01be 6dd9 32bd fff1 f33d dddd d23d
00000110: 5cd2 34bd 1ac8 813d aa07 92bd ab38 18bd
00000120: 9033 67bd 7fc8 9dbc 3faa b73d 6eaf 733d
00000130: bfeb 373c 734d 1dbd e901 153d ab04 793d
00000140: ca81 e2bc 14b5 3a3d 0ae8 b0bc a424 05bd
00000150: d097 70bd 3937 d3bc a4f5 24bc ca83 fb3c
00000160: 8df3 5f3b 5f87 5fbd 4379 3a3c 844a ef3b
00000170: 15e5 3ebc 5e19 10bc e6be fbbc de0b d43b
00000180: d6f6 36bd 07fa 8fbd 3aae 38bd 280c ec3a
00000190: 3cdb e5bc e466 d03c f70e f63b 740a bf3c
000001a0: 4b07 68bc 3a98 0fbd f352 fabd 7f28 b1bd
000001b0: eb69 193d 2470 2bbc c764 2f3d 265e d83b
000001c0: 8e24 19bd 22e3 76bc 582e cdbd 8a84 413d
000001d0: 41f6 5f3d 3af6 4abd 4f36 58bd 4f95 fbbd
000001e0: 027a c63c 787a 1abd 46ee 16bd 4aff 6f3c
000001f0: 0f82 d53d 299c 68bd d291 cbbd 519b 9abd
00000200: c4bc a2bd f039 263d b073 6e3d e9df 203e
00000210: c4f3 ad3d 1a90 94bc a768 683d f901 47bd
00000220: d057 6b3d 439b 93bc 010f 00be 4063 07bd
00000230: 2c3f 38be 7113 1abe 83d7 72be 1e58 2cbe
00000240: e5c2 1abe c72b 6abd 180b 1bbe fb67 cabd
00000250: 80ff 16be 909c 74be ee06 0b3d c553 9b3d
00000260: 6562 5cb8 d9e2 993d 135a d53c a9b5 663d
00000270: 2883 973d 8f99 003e 98b3 1b3d 5218 523b
00000280: 2018 b43c 185d 583d 6946 dc3d 943e 173c
00000290: f04c 12bd 0d30 f2bd 693e d9bc 74b3 ccbc
000002a0: 681a 90bd cd23 f2bc 1b45 97bd 3964 14bd
000002b0: 3568 f4bd 80d8 00be bc91 19be 9bc3 8a3d
000002c0: 373c e73d ceec 253d 5934 013e 979c 863c
000002d0: c283 10bd 26a4 273d 591b 2c3c c598 a63c
000002e0: 41be 39bd c695 e9bd 3f56 bbbc 5761 16bd
000002f0: cd15 bebb 5f67 3d3d f5bd efbd 3b3d 4fbd
00000300: 1937 bbbd 35e7 8c3c d8e1 f63d a6cd 0abb
00000310: 8711 ebbd f147 13bd 6d71 083d 78e6 333d
00000320: 1340 613d 00f0 08bd 679d ebbb dc55 4dbd
00000330: 2dac 66bc b65b 42bd a842 81bd 1be2 8cbd
00000340: 1886 d5bd daf8 08be 9525 273d a39c babc
00000350: 127f c3bd 528b a4bd e8f7 1fbd 72f8 923c
00000360: 5bb6 e73c 27b8 45bb 1320 37bd 542b 933c
00000370: 42b0 0f3d 3b50 e53c a3aa 02bd 2759 b2bc
00000380: cde8 b83d 781b 453c 8f71 32bd 0ee8 4abd
00000390: 094a 4fbd cf93 35bc 1167 363d 2dc0 6d3c
000003a0: b2eb 41bd 946d 3a3d 6a41 3abc 60d0 f43d
000003b0: 7537 2d3d bf99 593c f3da 43bc 88cb a738
000003c0: e48b 6e3d 50d4 363b 3624 753c 7960 ef3c
000003d0: 2cc0 dabb 2621 4ebd 455d 66bd a8bc d0bb
000003e0: 1589 a7ba c7ec 1f3d 6a41 cbbd 74df 5abd
000003f0: e376 0f3d 78ca 053e 2dab e5bc 6013 0e3c

conv2.0.bias f4 [32]
0.018934203 -0.091527574 -0.16730322 -0.13230872 -0.23177323 0.008194539 -0.2770175 -0.0021029655
0.023740664 0.04450288 -0.08073279 -0.11419204 -0.11133532 -0.21213844 -0.14500408 -0.12922855
-0.015998816 -0.22375435 -0.052230876 -0.16475019 -0.23868214 -0.020440528 -0.021295974 -0.0573872
-0.01787196 -0.050096344 -0.32984322 -0.10172373 0.10173012 0.13773383 -0.044122323 -0.16663104
00000000: e71b 9b3c cf72 bbbd 8951 2bbe f07b 07be
00000010: f655 6dbe 6342 063c 3dd5 8dbe e8d1 09bb
00000020: c87b c23c a748 363d 3c57 a5bd 84dd e9bd
00000030: c603 e4bd d23a 59be f37b 14be 7d54 04be
00000040: f30f 83bc dc1f 65be 0bf0 55bd 46b4 28be
00000050: 1769 74be e572 a7bc e574 aebc d70e 6bbd
00000060: 3768 92bc d331 4dbd 36e1 a8be 8854 d0bd
00000070: e257 d03d 190a 0d3e 9cb9 34bd 54a1 2abe

fc1.weight f4 [62, 1568]
-0.058931727 -0.026545133 -0.011018329 -0.019480541 -0.0041185506 -0.03916522 -0.0075383964 -0.026508514
-0.03793041 0.013468205 -0.018817602 0.021687238 0.04022239 -0.034385502 -0.070476755 -0.08644742
-0.08247598 0.011927127 -0.10501399 -0.019176135 -0.07530956 -0.018322742 -0.06613526 -0.07358119
-0.16219169 -0.06565388 -0.057225887 -0.032308012 0.0060236244 0.020966815 0.071230635 0.038901716
0.027583072 -0.026208807 -0.051613297 0.027899947 0.046138998 0.056235954 -0.03763382 0.005314762
-0.00012862509 -0.052224167 -0.020784572 0.010672904 -0.036100976 0.03785104 0.031481188 -0.011042031
0.013210318 -0.009494032 -0.009660939 -0.030127581 0.019061062 -0.0017451777 -0.06841764 0.009430649
-0.015088037 -0.007105842 0.01373659 0.0307034 -0.00962643 0.050444327 -0.052494463 -0.02247157
0.015232902 0.022180349 0.027162809 0.051660474 0.0043089124 -0.080210626 -0.030110074 -0.00447177
-0.026276765 -0.06683104 0.011451449 -0.053092584 -0.09700024 -0.15888175 -0.051042352 -0.034674373
-0.022083921 -0.008020728 -0.14066766 -0.12755318 -0.12639673 0.018783048 0.018916745 0.010595356
0.05079407 -0.098373525 -0.10268907 -0.028748916 -0.009887848 0.016360609 0.002734168 -0.025600942
-0.044927124 -0.01534764 -0.025432572 -0.01474878 -0.07593287 0.016436705 0.06695416 0.015392112
0.025561335 -0.02163228 -0.028615594 -0.059822246 -0.06814807 -0.002042576 0.03908709 -0.013460433
-0.00030853355 0.030032976 0.027731758 -0.017953794 -0.03772756 -0.02668505 0.04462058 0.028794166
0.024305983 0.02509708 -0.014712784 0.0063769803 0.05201485 0.0274355 0.017932713 -0.0015124887
0.070207134 -0.047763415 -0.008226445 -0.03773662 0.041912254 -0.0695278 -0.025232844 -0.062054623
-0.006289344 -0.032817125 0.03959998 0.061157506 -0.006730424 -0.060065184 -0.08863249 -0.16031583
-0.10074013 -0.06635804 0.004761274 -0.0041124015 -0.015093302 -0.016803987 0.05678161 -0.018752577
-0.0020962832 0.025724184 0.0076254434 0.016138053 0.019283636 0.036556635 -0.01892496 -0.053797968
0.0034407268 0.005418076 0.026079264 -0.06894858 -0.034925107 -0.044063203 0.0117495945 0.058977716
-0.026816713 -0.06339943 -0.0043564877 0.061514597 0.10214653 0.09129062 -0.027525723 -0.020176081
0.015073015 0.045013376 0.020637829 -0.08120612 0.016421841 0.012519607 -0.0018236017 -0.0026435137
-0.05283279 -0.038486775 -0.002143964 -0.004720834 0.0017651479 -0.010916008 0.008895204 -0.0490435
0.011996765 -0.0030933819 -0.0070460737 -0.013090481 0.019945117 0.030074554 -0.000998178 0.0050659804
-0.044573415 -0.0011126718 0.027326293 -0.0018873625 -0.0113168 -0.0071826954 0.07680321 0.035020586
-0.013136822 -0.026121262 -0.018644234 -0.025171714 -0.034180287 -0.027740214 -0.05227683 -0.045296807
-0.010907167 -0.0039030353 -0.047931354 -0.050673634 -0.0111012105 -0.00814594 -0.04887105 -0.05803356
0.016033588 0.014458985 -0.014179284 -0.044163436 -0.04456937 -0.013482464 -0.028571792 0.0332172
-0.0935571 -0.028816588 0.01646285 -0.0030705247 -0.061863575 0.028132664 0.023617037 0.028706389
-0.013688559 -0.006897351 -0.07826809 -0.035143737 -0.0013644847 -0.0070100008 -0.009395667 0.027024774
0.014147652 -0.007312841 0.0069955704 0.048724234 0.019968696 0.019921899 0.009505914 -0.035309624
00000000: 6562 71bd 2e75 d9bc 3986 34bc a895 9fbc
00000010: e8f4 86bb b66b 20bd a704 f7bb 6228 d9bc
00000020: eb5c 1bbd bfa9 5c3c 5f27 9abc 6fa9 b13c
00000030: 3cc0 243d d0d7 0cbd 1e56 90bd 580b b1bd
00000040: 2be9 a8bd ff69 433c 9311 d7bd 4517 9dbc
00000050: e63b 9abd 9319 96bc ec71 87bd bcb1 96bd
00000060: 9415 26be 8b75 86bd b165 6abd 6855 04bd
00000070: d361 c53b 99c2 ab3c 5ee1 913d 6857 1f3d
00000080: e5f5 e13c dab3 d6bc 7768 53bd 6e8e e43c
00000090: 3ffc 3c3d ac57 663d ec25 1abd 7427 ae3b
000000a0: 89df 06b9 02e9 55bd 6844 aabc 67dd 2e3c
000000b0: 9ede 13bd b109 1b3d 6bf2 003d a3e9 34bc
000000c0: 1770 583c db8c 1bbc ea48 1ebc 1ece f6bc
000000d0: f225 9c3c 72be e4ba 8c1e 8cbd 0283 1a3c
000000e0: d033 77bc 20d8 e8bb 6f0f 613c b285 fb3c
000000f0: 2db8 1dbc b69e 4e3d 6f04 57bd 4c16 b8bc
00000100: 6c93 793c 90b3 b53c 8a84 de3c ef99 533d
00000110: c731 8d3b 7845 a4bd 67a9 f6bc ed87 92bb
00000120: 5f42 d7bc b6de 88bd dc9e 3b3c 9c77 59bd
00000130: 10a8 c6bd e6b1 22be c911 51bd b706 0ebd
00000140: 57e9 b4bc 5f69 03bc 2f0b 10be 4d9d 02be
00000150: 256e 01be e8de 993c 4af7 9a3c 2598 2d3c
00000160: 710d 503d 0f78 c9bd a64e d2bd d982 ebbc
00000170: a400 22bc af06 863c ba2f 333b 11b9 d1bc
00000180: 8105 38bd ab74 7bbc f857 d0bc dea4 71bc
00000190: b182 9bbd 45a6 863c 431f 893d 322f 7c3c
000001a0: 0166 d13c 2e36 b1bc 406b eabc 2c08 75bd
000001b0: 3791 8bbd bddc 05bb c919 203d 2689 5cbc
000001c0: acc2 a1b9 b707 f63c b62d e33c d613 93bc
000001d0: 3788 1abd 9b9a dabc 12c4 363d bee1 eb3c
000001e0: 571d c73c 6498 cd3c e40d 71bc fdf5 d03b
000001f0: 860d 553d 6ac0 e03c a0e7 923c b33e c6ba
00000200: c2c8 8f3d 92a3 43bd 36c8 06bc b791 1abd
00000210: 2fac 2b3d 9764 8ebd 1cb5 cebc fd2c 7ebd
00000220: d716 cebb 406b 06bd 9733 223d 4b80 7a3d
00000230: e38a dcbb e906 76bd f384 b5bd d529 24be
00000240: d750 cebd b9e6 87bd 7604 9c3b 53c1 86bb
00000250: e649 77bc 84a8 89bc d593 683d 019f 99bc
00000260: cc61 09bb 86bb d23c dbde f93b f333 843c
00000270: b7f8 9d3c 69bc 153d 8508 9bbc 425b 5cbd
00000280: d17d 613b 1e8a b13b 2ea4 d53c ea34 8dbd
00000290: a10d 0fbd 9e7b 34bd 5f81 403c 9e92 713d
000002a0: b9ae dbbc 8fd7 81bd dec0 8ebb bbf6 7b3d
000002b0: 3332 d13d 94f6 ba3d a07d e1bc 4f48 a5bc
000002c0: cff4 763c f25f 383d aa10 a93c 654f a6bd
000002d0: 1987 863c 0a1f 4d3c eb05 efba cd3e 2dbb
000002e0: 3267 58bd 4fa4 1dbd bf81 0cbb 3ab1 9abb
000002f0: 895c e73a 0ed9 32bc 31bd 113c d6e1 48bd
00000300: 148e 443c 56ba 4abb c0e2 e6bb 7579 56bc
00000310: f163 a33c e95e f63c 4cd5 82ba 8600 a63b
00000320: 9d92 36bd 12d7 91ba 64db df3c 6061 f7ba
00000330: 196a 39bc d15c ebbb 004b 9d3d bf71 0f3d
00000340: d33b 57bc 42fc d5bc cbbb 98bc e934 cebc
00000350: a100 0cbd 723f e3bc 3b20 56bd 2589 39bd
00000360: f9b3 32bc 11ca 7fbb ab53 44bd 288f 4fbd
00000370: dae1 35bc 8c76 05bc 032d 48bd 99b4 6dbd
00000380: df58 833c 61e5 6c3c 3a50 68bc b8e4 34bd
00000390: 5f8e 36bd 8de5 5cbc 640f eabc c20e 083d
000003a0: dd9a bfbd c410 ecbc 19dd 863c db3a 49bb
000003b0: a964 7dbd 7976 e63c 8478 c13c a929 eb3c
000003c0: fa45 60bc 2c03 e2bb 054b a0bd e1f2 0fbd
000003d0: 82d8 b2ba 26b4 e5bb 49f0 19bc 0f63 dd3c
000003e0: 8ecb 673c 8ea0 efbb 193b e53b 1093 473d
000003f0: 6495 a33c 4033 a33c b1be 1b3c d3a0 10bd

fc1.bias f4 [62]
-0.036062103 0.2237554 0.022762654 -0.036656685 -0.007494861 0.032125384 0.019739093 -0.0036529705
0.07974169 0.025300125 0.0056465263 -0.03152098 0.06756735 -0.031054879 0.02410835 0.0594496
-0.07343432 -0.06268159 0.036579188 0.004599982 -0.06864213 0.027254239 -0.013900525 0.00013806197
0.08349688 0.033002578 -0.04480088 -0.033672452 0.023074817 0.035633102 -0.03151215 0.02086898
-0.024290264 -0.11216484 0.014565151 -0.086801335 -0.014657203 -0.06077771 -0.03973911 0.003671576
0.047922358 -0.055777796 0.0031174866 -0.01258379 0.017154342 0.035522487 -0.014545143 0.1015546
-0.030250132 -0.0402615 -0.0541274 0.015209503 0.011888003 0.01889574 -0.009202869 0.028415218
-0.016595118 -0.017054526 -0.010255384 -0.012792457 -0.027801031 -0.002506319
00000000: dbb5 13bd 2320 653e bf78 ba3c 5225 16bd
00000010: 7397 f5bb e895 033d e1b3 a13c ad66 6fbb
00000020: 9c4f a33d 3542 cf3c 7f06 b93b 251c 01bd
00000030: c060 8a3d cd66 febc e07e c53c 6c81 733d
00000040: bc64 96bd 355f 80bd 0fd4 153d 72bb 963b
00000050: 3f94 8cbd 4844 df3c 07bf 63bc bac4 1039
00000060: 6a00 ab3d b62d 073d 2181 37bd 20ec 09bd
00000070: 6607 bd3c 04f4 113d e212 01bd 6cf5 aa3c
00000080: 60fc c6bc aeb6 e5bd aca2 6e3c e6c4 b1bd
00000090: c424 70bc 0cf2 78bd 7ac5 22bd d39e 703b
000000a0: 3c4a 443d 4277 64bd bf4e 4c3b 3e2c 4ebc
000000b0: 4387 8c3c 0780 113d c04e 6ebc dcfb cf3d
000000c0: 20cf f7bc 3ee9 24bd b1b4 5dbd 4731 793c
000000d0: e6c5 423c 3dcb 9a3c a1c7 16bc 08c7 e83c
000000e0: 7cf2 87bc efb5 8bbc 3306 28bc 7497 51bc
000000f0: fdbe e3bc 0e41 24bb

momentum_buffer f4 [16, 1, 5, 5]
-0.005018308 -0.016656663 -0.02042911 -0.015475647 -0.007448627 -0.012955615 -0.017785013 -0.013706776
-0.007107404 0.00067567884 -0.010006863 -0.0073361103 -0.003258633 -4.2763553e-05 0.0047349175 -0.0050856536
-0.0012993116 -0.0012172319 -0.0032483372 0.0014190653 -0.0032056079 -0.0031308667 -0.005254584 -0.007238835
-0.004265212 0.0010075235 -0.00034545484 -0.0023059847 -0.003836661 -0.0021537896 -0.0051400485 -0.0047726
-0.0035604406 -0.0017889839 -0.00050876586 -0.008406023 -0.0038195313 -0.000753486 0.0013668966 0.00091028033
0.0015819963 0.0014482541 0.0014049278 0.0021629238 0.001067154 0.004067789 0.002908651 0.00245781
0.0023936327 -0.001132798 0.0020297582 -0.0043629427 -0.00093510095 0.006697501 0.014222804 -0.0060188686
-0.006661597 0.00045672857 0.010199856 0.01655742 -0.0037196032 -0.0005954163 0.00332713 0.009379422
0.014232067 0.0003502555 0.0017996174 0.0035428952 0.007634708 0.010845844 0.00063562975 0.00016601793
0.0011887118 0.00569761 0.007864175 -0.015674604 -0.012326647 -0.0054321974 -0.0060011316 -0.009151778
-0.013354266 -0.008250068 -0.0029948573 -0.007029663 -0.0108368015 -0.011752159 -0.0064819837 -0.004832149
-0.011397185 -0.01565683 -0.011801498 -0.008537526 -0.0091733765 -0.01701683 -0.020033916 -0.011443771
-0.010217827 -0.013063547 -0.017990815 -0.016729075 0.019987535 0.021035083 0.020617116 0.012393435
0.005999842 0.013201502 0.016319014 0.01628683 0.010346872 0.0054388624 0.007218328 0.007533768
0.008392864 0.00631849 0.0045503452 0.0038824312 0.0018745598 0.0035980393 0.005432535 0.00975667
-0.00040011018 -0.00027513196 0.00305863 0.010392988 0.017835226 0.004767447 0.0038502095 0.00064900547
0.0038261998 0.0077700634 0.005468031 0.004739237 0.0035129483 0.0051668594 0.0144849755 -0.0025727248
-0.00462819 0.0012631164 0.010720643 0.024323856 0.00079779804 0.001345396 0.008904062 0.01963996
0.023766493 0.015365699 0.01676865 0.023827786 0.02840036 0.019364046 -0.009783031 -0.0055819517
-0.008496665 -0.011052636 -0.008855084 -0.01319364 -0.013660045 -0.015613955 -0.012402067 -0.0056411033
-0.023324383 -0.026513815 -0.022677911 -0.013082134 -0.0047081974 -0.022201162 -0.024140516 -0.017688576
-0.0071150884 -0.006281462 -0.01675635 -0.014538779 -0.0074700015 -0.004481386 -0.007734312 -0.0026166146
-0.007330338 -0.015184241 -0.023491116 -0.016233597 -0.0014015774 -0.01160584 -0.014707572 -0.0069127274
0.0033314335 -0.0059533007 -0.0135702 -0.009722088 0.0031997727 0.015551692 -0.0021044433 -0.002190076
0.0039007359 0.011662624 0.013748684 0.0077364948 0.012897537 0.016712563 0.015873361 0.011526361
0.0050510545 0.00025289244 -0.001493719 0.0007505385 0.0018866705 0.0026103922 -0.00070944906 0.00021431863
0.0026410075 0.004224739 0.0008411221 -0.00030674622 0.00032937492 0.0022685027 0.004334007 0.0005877975
-0.0009073995 -0.0008537938 0.00026163275 0.0032474021 0.00093595823 -0.0019291474 -0.0016699295 -0.00012804467
0.0025629955 0.005912542 0.010404435 0.0148733575 0.0200362 0.025463806 0.0030513091 0.0053031277
0.010583608 0.016091183 0.023088526 0.0037081733 0.0036124177 0.0059031355 0.008276936 0.01411238
0.0045385663 0.0052883187 0.0049064243 0.005442046 0.009757396 0.004761077 0.0039142054 0.0019823378
0.0018054639 0.0059993058 -0.0010367843 -0.006512018 -0.014075685 -0.021243727 -0.025368432 0.004942895
00000000: 9e70 a4bb 8e73 88bc f35a a7bc 918d 7dbc
00000010: 9d13 f4bb ca43 54bc e0b1 91bc 6392 60bc
00000020: 3ae5 e8bb 0a20 313a d3f3 23bc c163 f0bb
00000030: ca8e 55bb 045d 33b8 5e27 9b3b 8ea5 a6bb
00000040: aa4d aaba 868b 9fba 0ee2 54bb eeff b93a
00000050: 2d15 52bb 3a2f 4dbb a52e acbb c033 edbb
00000060: 31c3 8bbb e10e 843a 2a1e b5b9 0120 17bb
00000070: 7e70 7bbb 9826 0dbb da6d a8bb 7863 9cbb
00000080: 4856 69bb 577c eaba b35e 05ba 6ab9 09bc
00000090: 1a51 7abb 9785 45ba 7029 b33a e19f 6e3a
000000a0: fd5a cf3a 58d3 bd3a 8e25 b83a d7bf 0d3b
000000b0: bfdf 8b3a 164b 853b 119f 3e3b 3613 213b
000000c0: 7ede 1c3b 657a 94ba b105 053b 04f7 8ebb
000000d0: 9021 75ba b676 db3b c406 693c ee39 c5bb
000000e0: 8749 dabb 1275 ef39 4c1d 273c 6da3 873c
000000f0: 96c4 73bb b615 1cba fb0b 5a3b 26ac 193c
00000100: 9e2d 693c 7fa2 b739 24e1 eb3a eb2f 683b
00000110: 932c fa3b c4b2 313c 64a0 263a 1915 2e39
00000120: 8dce 9b3a 04b3 ba3b bed8 003c 0768 80bc
00000130: b4f5 49bc 9300 b2bb 24a5 c4bb 57f1 15bc
00000140: dacb 5abc 4b2b 07bc 5e45 44bb 1659 e6bb
00000150: d78c 31bc 218c 40bc d266 d4bb 0157 9ebb
00000160: 42bb 3abc c142 80bc 125b 41bc fbe0 0bbc
00000170: ee4b 16bc e166 8bbc 2b1e a4bc a87e 3bbc
00000180: ac68 27bc 7d08 56bc 7961 93bc 6a0b 89bc
00000190: e6bc a33c c451 ac3c 3ae5 a83c d60d 4b3c
000001a0: 539a c43b 1d4b 583c 74af 853c f56b 853c
000001b0: ed85 293c 7c38 b23b b987 ec3b d4dd f63b
000001c0: 3982 093c 560b cf3b 101b 953b 6370 7e3b
000001d0: cab3 f53a 15cd 6b3b 6803 b23b 71da 1f3c
000001e0: e1c5 d1b9 963f 90b9 4c73 483b 5a47 2a3c
000001f0: 2e1b 923c 3e38 9c3b cc53 7c3b 0522 2a3a
00000200: fbc0 7a3b 049c fe3b 2b2d b33b 9a4b 9b3b
00000210: 7e39 663b c24e a93b 6452 6d3c 299b 28bb
00000220: 12a8 97bb 278f a53a a3a5 2f3c d342 c73c
00000230: 5223 513a 0058 b03a 58e2 113c fbe3 a03c
00000240: f3b1 c23c 6ac0 7b3c 685e 893c 7d32 c33c
00000250: dfa7 e83c 59a1 9e3c 0249 20bc cee8 b6bb
00000260: 9935 0bbc 1e16 35bc ea14 11bc 232a 58bc
00000270: 62ce 5fbc add1 7fbc 0a32 4bbc 01d9 b8bb
00000280: c712 bfbc 8033 d9bc 07c7 b9bc 7256 56bc
00000290: 3947 9abb 36df b5bc 55c2 c5bc a2e7 90bc
000002a0: b025 e9bb b9d4 cdbb 9d44 89bc 0f34 6ebc
000002b0: eac6 f4bb 97d8 92bb 1d70 fdbb 827b 2bbb
000002c0: 5533 f0bb 53c7 78bc 7170 c0bc 52fc 84bc
000002d0: 22b5 b7ba 6c26 3ebc 07f8 70bc 2984 e2bb
000002e0: 2e54 5a3b e813 c3bb 8b55 5ebc 6549 1fbc
000002f0: 47b3 513b 86cc 7e3c b3ea 09bb 6187 0fbb
00000300: 7da3 7f3b 9714 3f3c 2942 613c 6c82 fd3b
00000310: 3150 533c c9e8 883c da08 823c 10d9 3c3c
00000320: 5183 a53b a696 8439 e5c8 c3ba c9bf 443a
00000330: 284a f73a 1d13 2b3b 52fa 39ba b8ba 6039
00000340: c114 2d3b ae6f 8a3b c07e 5c3a c8d2 a0b9
00000350: f4af ac39 29ab 143b 4904 8e3b 6c16 1a3a
00000360: 8dde 6dba 22d1 5fba c12b 8939 5ed2 543b
00000370: 185b 753a 72db fcba 89e1 daba bb43 06b9
00000380: eef7 273b ffbd c13b 5d77 2a3c 62af 733c
00000390: f522 a43c 7999 d03c 79f8 473b dcc5 ad3b
000003a0: df66 2d3c a8d1 833c 2624 bd3c d304 733b
000003b0: 50be 6c3b 176f c13b fc9b 073c 9d37 673c
000003c0: 41b8 943b a249 ad3b 12c6 a03b 3153 b23b
000003d0: 7cdd 1f3c cf02 9c3b bc42 803b 1cea 013b
000003e0: 51a5 ec3a d395 c43b b5e4 87ba c462 d5bb
000003f0: b49d 66bc 5307 aebc 75d1 cfbc 02f8 a13b

momentum_buffer f4 [16]
-0.0057024215 0.016371455 0.036708508 -0.031186314 0.08646771 0.055111412 -0.03208458 -0.020964285
0.009116987 0.096945465 -0.0685745 0.027214322 -0.019149292 -0.004109723 -0.058437224 -0.045249045
00000000: 61db babb 6e1d 863c a95b 163d 717a ffbc
00000010: fc15 b13d 81bc 613d 1f6b 03bd 4bbd abbc
00000020: 6a5f 153c 588b c63d ca70 8cbd 92f0 de3c
00000030: fade 9cbc dbaa 86bb df5b 6fbd 1057 39bd

momentum_buffer f4 [32, 16, 5, 5]
-0.0051811566 0.00022350712 0.003519402 0.0040630004 0.00023400197 -0.0113981925 -0.0042237835 0.001844315
0.003874536 0.0010692792 -0.020751337 -0.017824057 -0.009205056 -0.0023651426 0.0005820758 -0.010458084
-0.012373784 -0.006387848 -0.00046161053 0.0030200046 -0.00043201377 -0.0020371226 0.0001428302 0.0022837496
0.00290769 -0.006046394 -0.012176065 -0.0060568987 -0.0012629577 0.0040172045 -0.0054647513 -0.009600826
-0.0065253163 -0.0019967507 0.002441347 -0.0036930332 -0.0075725084 -0.005309081 -0.0028579815 0.0007905577
-0.00019641426 -0.0018719338 -0.002741872 -0.003708042 -0.00019856737 0.0010228683 0.0008413886 -0.0003942015
-0.0041932343 -0.0005311972 0.002536956 0.004197651 0.003727208 0.0025306975 5.000109e-06 -0.008797705
-0.0018784511 0.0020465483 0.0017275123 -0.0009808325 -0.022829652 -0.01640312 -0.005323467 -0.0011126837
-0.00040420092 -0.019032085 -0.01990633 -0.0115299495 -0.0036533372 0.001586484 -0.0026831655 -0.004416288
-0.0026473852 0.00038784166 0.0040141805 -0.0014235651 -0.0043699583 -0.004595468 -0.0014264651 -0.00073957565
-0.0011819305 -0.0040885173 -0.0040513836 -0.002525934 -0.00061045744 -0.0007802229 -0.0011814132 -0.0008839425
-0.0010182086 -0.0009699056 -0.0003144022 -0.00042300677 -0.00019378381 -0.00031729683 -0.0013070571 -1.0484773e-05
-0.00044916844 0.0003308054 -0.00068225316 -0.0011454122 0.0030602086 0.0015309984 0.00022212823 0.00017353077
-0.00046174228 -0.00044543797 0.00020506089 0.001183654 0.00032746478 0.0009953326 -0.0053966343 -0.006609407
-0.00065237476 0.00048586147 -0.00048560541 -0.009596689 -0.009551467 -0.0064806323 -0.0034339186 -0.0006661338
-0.00040129738 0.00053470477 -0.00055735395 -0.00056903437 0.00087645167 -0.009250854 -0.008273101 -0.008226249
-0.0060286345 -0.0017213856 -0.007300035 -0.014074262 -0.017432883 -0.011773965 -0.004483187 -0.0020008232
-0.0064892573 -0.009324761 -0.007167901 0.00014278252 -0.0005533448 -0.00045248013 0.00070409384 0.0023114712
0.004955208 -0.003189642 -0.0036611473 -0.003065651 -0.0010395639 -0.0007495673 -0.0018304305 -0.0018300969
-0.0012290407 -0.0016842629 -0.0006191352 -0.003769128 -0.0059846733 -0.0062915604 -0.0044308156 -0.0016424166
-0.0072744363 -0.011473886 -0.010264446 -0.0066512167 -0.0033079004 0.0008890619 0.0002503384 0.0012342936
0.0021684219 0.002514945 -0.00042386423 -0.0003489082 0.00019089694 6.144478e-05 0.0008042248 -0.006878832
-9.528792e-05 0.0010150209 0.0018560133 0.003606895 -0.006607171 -0.0002236467 -0.0025470306 -5.2976844e-05
0.0020953666 -0.007198644 -0.0040148334 -0.002068588 0.0017896198 0.0064159147 -0.002924468 -0.0026671593
-0.0032970216 0.004818297 0.008406919 -0.0011985925 -0.0035306439 -0.0038409638 0.0017578686 0.0031679908
0.0008919615 -0.0006144495 0.00018666031 0.00032284172 0.00030490957 -0.0023146665 -0.0010106945 -0.00053104374
-6.919773e-05 0.00023166458 -0.006129076 -0.004375857 -0.0017950783 -0.0012684846 -0.0006718834 -0.0064140307
-0.006208233 -0.0040126746 -0.0027622895 0.00035487494 -0.00041033098 -0.0011916121 -0.0021110491 -0.00200984
0.0004917333 0.0014521123 0.0012898901 0.000102283455 -0.0027007402 -0.0015458761 5.61611e-05 0.0036785386
0.0017738132 0.00044888162 -0.0018879578 -0.008544822 -0.0014208254 0.0018790547 0.00057288934 -0.0005166527
-0.0116547225 -0.006904566 -0.0020167283 0.00030669785 0.002332239 -0.0012647483 5.8835278e-05 0.0029159747
0.005578484 0.005697645 -0.013659348 -0.0007117134 0.0032096794 0.007969873 0.005364742 -0.019032001
00000000: b1c6 a9bb 3c5d 6a39 c4a5 663b eb22 853b
00000010: 6d5e 7539 7cbf 3abc aa67 8abb f1bc f13a
00000020: edeb 7d3b 0e27 8c3a b5fe a9bc c203 92bc
00000030: ced0 16bc 8200 1bbb 7296 183a 6258 2bbc
00000040: 69bb 4abc 2751 d1bb 5104 f2b9 45eb 453b
00000050: e87f e2b9 3f81 05bb b1c4 1539 f6aa 153b
00000060: f18e 3e3b d420 c6bb 1e7e 47bc f378 c6bb
00000070: d489 a5ba c1a2 833b a811 b3bb c84c 1dbc
00000080: 52d2 d5bb ebdb 02bb 02ff 1f3b d106 72bb
00000090: ce22 f8bb cdf7 adbb f94c 3bbb 6e3d 4f3a
000000a0: 8df4 4db9 ad5b f5ba fbb0 33bb 9f02 73bb
000000b0: 8636 50b9 c411 863a a290 5c3a d4ac ceb9
000000c0: 6667 89bb 0a40 0bba 0f43 263b 738c 893b
000000d0: 2c44 743b 0fda 253b 9cc6 a736 4024 10bc
000000e0: 5c36 f6ba 621f 063b b26d e23a 478f 80ba
000000f0: 4005 bbbc d65f 86bc 7a70 aebb 78d7 91ba
00000100: eeea d3b9 2de9 9bbc 9a12 a3bc 1de8 3cbc
00000110: d46c 6fbb 92f1 cf3a 0cd8 2fbb 82b6 90bb
00000120: c17f 2dbb 3a57 cb39 6389 833b eb96 baba
00000130: de31 8fbb 9495 96bb 3af8 baba 15e0 41ba
00000140: 02eb 9aba f8f8 85bb 78c1 84bb 248a 25bb
00000150: 1b07 20ba df87 4cba a6d9 9aba 61b8 67ba
00000160: 6975 85ba 4341 7eba 59d6 a4b9 02c7 ddb9
00000170: 7232 4bb9 dc5a a6b9 8f51 abba c2e7 2fb7
00000180: 5e7e ebb9 f36f ad39 3cd9 32ba a821 96ba
00000190: c88d 483b c8ab c83a 18eb 6839 d0f5 3539
000001a0: 0016 f2b9 ac89 e9b9 9d05 5739 d624 9b3a
000001b0: 94af ab39 d275 823a 40d6 b0bb b993 d8bb
000001c0: 2104 2bba 39bb fe39 db98 feb9 6e3b 1dbc
000001d0: c27d 1cbc 7c5b d4bb 980b 61bb 7c9f 2eba
000001e0: 3965 d2b9 6e2b 0c3a 641b 12ba 402b 15ba
000001f0: adc1 653a e590 17bc e78b 07bc 64c7 06bc
00000200: da8b c5bb 1ea0 e1ba 2235 efbb bc97 66bc
00000210: 68cf 8ebc 97e7 40bc b3e7 92bb 3e20 03bb
00000220: d6a3 d4bb e2c6 18bc b6e0 eabb e4b7 1539
00000230: 570e 11ba db3a edb9 f092 383a 0d7c 173b
00000240: 4c5f a23b 5009 51bb dcef 6fbb 17e9 48bb
00000250: fa41 88ba 9c7e 44ba 0eeb efba dddf efba
00000260: c317 a1ba 7cc2 dcba 764d 22ba 7903 77bb
00000270: 141b c4bb 6f29 cebb 6030 91bb 5b46 d7ba
00000280: 655e eebb f7fc 3bbc 352c 28bc 73f2 d9bb
00000290: 5cc9 58bb ef0f 693a da3f 8339 05c8 a13a
000002a0: 151c 0e3b c7d1 243b 183a deb9 aaed b6b9
000002b0: 822b 4839 eadb 8038 9dd2 523a d367 e1bb
000002c0: 50d5 c7b8 730a 853a 7945 f33a a861 6c3b
000002d0: f880 d8bb b482 6ab9 15ec 26bb 7433 5eb8
000002e0: 6b52 093b 9ae2 ebbb dd8e 83bb 2691 07bb
000002f0: ad91 ea3a 983c d23b 6ea8 3fbb 82cb 2ebb
00000300: d812 58bb cee2 9d3b 2dbd 093c 171a 9dba
00000310: 6062 67bb aeb8 7bbb 4868 e63a 119e 4f3b
00000320: 86d2 693a 0213 21ba 3fba 4339 1543 a939
00000330: 45dc 9f39 a9b1 17bb 4879 84ba be35 0bba
00000340: 401e 91b8 fdea 7239 6ad6 c8bb 5963 8fbb
00000350: d548 ebba 4843 a6ba 5521 30ba ca2c d2bb
00000360: 6f6e cbbb c17c 83bb 8707 35bb 820e ba39
00000370: b121 d7b9 de2f 9cba 8759 0abb 85b7 03bb
00000380: aae7 003a ce54 be3a 8811 a93a 0381 d638
00000390: e7fe 30bb ff9e caba 868e 6b38 a313 713b
000003a0: 4b7f e83a df57 eb39 5a75 f7ba 95ff 0bbc
000003b0: fd3a baba 9d4a f63a f42d 163a fa6f 07ba
000003c0: 73f3 3ebc b33f e2bb 162b 04bb 4acc a039
000003d0: 7ad8 183b e9c5 a5ba e6c5 7638 f019 3f3b
000003e0: b7cb b63b 4fb3 ba3b 75cb 5fbc 4792 3aba
000003f0: 7c59 523b 1294 023c b8ca af3b 00e9 9bbc

momentum_buffer f4 [32]
-0.0043524066 -0.0028399709 -0.013712137 -0.014530412 0.0036723716 0.0024091783 0.0071667163 0.009990762
-0.0025739626 -0.007769036 0.0022346736 -0.010035672 0.008642007 -0.020254659 0.004178057 0.006992368
0.0115680285 0.012542006 -0.007304927 0.012337758 0.0101102395 0.00016227429 -0.006371738 0.0028523554
0.0049064835 -0.00023056954 -0.007116422 -0.0009855892 -0.009778365 -0.006380479 -0.0011649256 -0.015925061
00000000: a29e 8ebb ce1e 3abb dfa8 60bc f710 6ebc
00000010: 2cac 703b 4ee3 1d3b c6d6 ea3b 4bb0 233c
00000020: edaf 28bb 6693 febb 9a73 123b a96c 24bc
00000030: 3497 0d3c 19ed a5bc 15e8 883b 3c20 e53b
00000040: d487 3d3c fc7c 4d3c 2b5e efbb 4f24 4a3c
00000050: 6ba5 253c 2c28 2a39 03ca d0bb 95ee 3a3b
00000060: 91c6 a03b 0ac5 71b9 e030 e9bb e32e 81ba
00000070: 6f35 20bc 5613 d1bb 6bb0 98ba 4675 82bc

momentum_buffer f4 [62, 1568]
2.0732694e-05 -5.2786087e-05 4.482382e-06 7.5239095e-09 7.797985e-11 1.4520691e-07 0.00018249467 1.2523667e-05
6.233257e-05 8.562461e-05 -0.0042919563 -0.0040234923 -0.0024191197 2.613598e-07 0.001450747 0.0006276186
0.0050731464 -0.013814984 -0.00806726 -0.0034799033 4.746369e-06 -1.8919e-05 3.1003299e-06 2.74571e-07
2.0842946e-05 1.6447992e-05 3.083846e-08 -0.00010651284 -0.0028209714 0.0017500442 2.3977469e-05 1.4445268e-05
4.2847305e-06 1.2637466e-07 -0.00025431815 -0.008128257 -0.0021519533 -0.005704854 -0.008080052 0.0013076147
-0.004073094 -9.780522e-06 -0.0006193018 -0.0018030955 -0.0035391494 -0.002506308 -0.0012274645 7.859494e-06
8.4212814e-05 -0.00022200341 1.953499e-05 1.8721237e-05 5.8401056e-06 3.7291315e-06 2.963676e-06 7.906207e-07
0.00025115564 0.002334007 -0.00011858228 -0.0115419775 -0.009972385 -0.00048567652 -0.0007100456 -0.0007056676
0.0034085554 9.785183e-06 1.368665e-05 -0.0020848028 5.891132e-05 -0.0015307484 -0.00017737159 2.5954323e-06
2.3974037e-06 2.750707e-06 1.3980669e-07 1.2676432e-08 -0.0006010268 0.0010384845 1.7846423e-07 -0.0034855886
-0.00095328933 4.2013435e-06 7.876569e-06 3.8316366e-06 -0.00013841134 -0.0014445435 -0.03316295 -0.02778351
-0.011825936 1.2589152e-05 -3.5272154e-05 6.1802615e-07 4.773518e-06 -0.0021933531 9.007091e-09 1.9273779e-08
1.2989568e-07 4.1243925e-07 0.00019884862 -5.789493e-05 -0.0010185217 0.0011128278 0.00027282548 -0.0009409093
0.0003319525 -4.288789e-06 3.306774e-07 7.718736e-05 9.735047e-05 3.509809e-05 0.000119561715 -0.000101179394
1.08281055e-08 6.1404003e-06 -0.0017547717 -0.0013293334 5.9033056e-05 -0.008112074 3.5631613e-06 2.2156113e-08
-0.006594679 0.003857262 -0.0033492574 0.00468384 -0.010911197 -0.0011473699 4.220055e-05 -0.010112009
-0.0034928531 1.7454958e-06 0.0011550252 -0.019539392 -0.0007503992 5.924817e-05 -0.0013258598 1.514927e-06
8.83831e-06 -0.0030009216 9.4369e-05 2.1524738e-05 4.776566e-06 -0.0007749796 0.008106191 0.00093745725
-0.0020430877 5.9130547e-05 3.190964e-05 0.0 4.6694475e-11 4.6021287e-07 -0.000789319 -0.0029666983
5.077074e-09 5.5826086e-09 5.1952817e-12 3.712237e-08 -0.0012381815 0.0018559496 -0.0067667775 -0.002387211
4.829123e-07 9.532004e-10 -3.1251355e-07 0.010437333 0.011100623 -0.010841114 -0.0039257603 -0.0012980917
-1.2224586e-06 -9.6036e-06 0.004228288 3.9612292e-05 0.002963454 -0.014059544 -0.009641882 -0.0006688893
3.3523516e-05 0.005187421 0.001149318 -0.014649143 -0.008664259 2.033713e-05 4.0023593e-08 -0.0001918329
-0.0045310827 -0.0044613145 -0.0019610457 -0.002452764 1.762888e-05 0.0 2.6258257e-07 -0.0012514701
-0.0042059473 -0.0025759703 7.2546345e-06 2.5990337e-06 2.3419097e-06 -0.001086305 -0.0006636531 -0.0012378613
-0.00056408066 -0.0035855651 -0.00071077415 -0.0010284046 -0.0011786231 -8.891385e-05 -7.908888e-05 4.683211e-08
-0.0033057707 -0.00071756355 -6.924306e-05 2.4495848e-06 0.0079935705 1.3541048e-06 4.0172795e-06 1.3109396e-06
6.631728e-07 1.2264749e-07 -3.0885913e-06 0.004589856 -0.004014987 -0.00567901 -0.005028762 2.6952828e-06
3.53888e-05 -0.00042486202 -0.0021804278 -0.0049901186 -0.0022731202 3.5438527e-06 0.00014275224 5.3061554e-05
-0.004673722 0.0056001144 0.0028725266 -0.00014166217 -2.5989124e-05 0.00011675868 -0.0006606924 -0.011857345
0.0011816672 0.010397621 -0.0005652127 2.7661485e-05 2.9537916e-05 1.9827523e-05 4.559916e-05 3.1530801e-06
-0.002479901 -0.0010359287 -2.7478385e-05 5.976983e-07 4.4385138e-06 0.0018809821 -0.004008346 -0.012005333
00000000: 1feb ad37 a166 5db8 5e67 9636 8142 0132
00000010: c17a ab2e 2cea 1b34 0a5c 3f39 bd1c 5237
00000020: 8bb8 8238 5d91 b338 8aa3 8cbb 80d7 83bb
00000030: 188a 1ebb 0451 8c34 fe26 be3a c586 243a
00000040: a33c a63b 3e58 62bc 8a2c 04bc 170f 64bb
00000050: 0043 9f36 3eb4 9eb7 430f 5036 c068 9334
00000060: e3d7 ae37 cbf9 8937 3f73 0433 a55f dfb8
00000070: 0ce0 38bb bd61 e53a 3923 c937 f459 7237
00000080: 8ec5 8f36 9ab1 0734 0156 85b9 612c 05bc
00000090: c907 0dbb c9ef babb 3262 04bc 4564 ab3a
000000a0: 9777 85bb 0617 24b7 a458 22ba d855 ecba
000000b0: 13f1 67bb df40 24bb e0e2 a0ba 45dc 0337
000000c0: 699b b038 96c9 68b9 12df a337 8d0b 9d37
000000d0: 20f6 c336 fe41 7a36 91e3 4636 0a3b 5435
000000e0: 8aad 8339 24f6 183b 60af f8b8 901a 3dbc
000000f0: 3763 23bc 66a2 feb9 5b22 3aba 8dfc 38ba
00000100: 1262 5f3b 0a2b 2437 b79f 6537 30a1 08bb
00000110: 8c17 7738 65a3 c8ba d3fc 39b9 302d 2e36
00000120: 15e3 2036 c998 3836 c51d 1634 8ac7 5932
00000130: 3a8e 1dba c21d 883a e09f 3f34 796e 64bb
00000140: 2ae6 79ba 44f9 8c36 9b25 0437 8291 8036
00000150: 8322 11b9 d656 bdba e0d5 07bd 3e9a e3bc
00000160: 92c1 41bc ff35 5337 30f1 13b8 6fe6 2535
00000170: 352c a036 5cbe 0fbb 9bbd 1a32 7d8f a532
00000180: 7479 0b34 386d dd34 0582 5039 35d4 72b8
00000190: eb7f 85ba 4edc 913a 040a 8f39 5ba7 76ba
000001a0: e909 ae39 6be8 8fb6 f587 b134 a6df a138
000001b0: a328 cc38 4a36 1338 35bd fa38 4630 d4b8
000001c0: 8306 3a32 a309 ce36 5e00 e6ba 073d aeba
000001d0: 439a 7738 81e8 04bc a51e 6f36 cf51 be32
000001e0: 2d18 d8bb 1eca 7c3b 377f 5bbb e67a 993b
000001f0: e1c4 32bc 5863 96ba 7f00 3138 d7ac 25bc
00000200: 5ae8 64bb c746 ea35 3764 973a 1311 a0bc
00000210: 70b6 44ba 3d81 7838 79c8 adba 7f54 cb35
00000220: 4148 1437 1cab 44bb f9e7 c538 0690 b437
00000230: 6446 a036 0028 4bba d4cf 043c b1bf 753a
00000240: 53e5 05bb f102 7838 b7d6 0538 0000 0000
00000250: 4e5d 4d2e 2d13 f734 4dea 4eba f06c 42bb
00000260: 6a72 ae31 25d1 bf31 f0ca b62c 7a70 1f33
00000270: 7a4a a2ba 5643 f33a d8bb ddbb c172 1cbb
00000280: 7ba1 0135 c201 8330 89c7 a7b4 5901 2b3c
00000290: 63df 353c ee9e 31bc aaa3 80bb bb24 aaba
000002a0: 5c13 a4b5 261f 21b7 738d 8a3b 6025 2638
000002b0: 8236 423b 005a 66bc fcf8 1dbc 6758 2fba
000002c0: 9a9b 0c38 3efb a93b b6a4 963a f602 70bc
000002d0: 89f4 0dbc a799 aa37 68e6 2b33 c126 49b9
000002e0: 7a79 94bb 3830 92bb e384 00bb 8dbe 20bb
000002f0: bbe1 9337 0000 0000 13f9 8c34 5e08 a4ba
00000300: 0bd2 89bb 9cd1 28bb d66c f336 0f6b 2e36
00000310: b429 1d36 5962 8eba 01f9 2dba bc3f a2ba
00000320: d0de 13ba cdfb 6abb 3f53 3aba 88cb 86ba
00000330: 077c 9aba 4277 bab8 85dc a5b8 7324 4933
00000340: a1a5 58bb e01a 3cba 9636 91b8 8c63 2436
00000350: 77f7 023c b0be b535 2bcc 8636 8bf3 af35
00000360: e304 3235 16b1 0334 9845 4fb6 8166 963b
00000370: 2790 83bb fd16 babb 50c8 a4bb 9be0 3436
00000380: 6f6e 1438 04c0 deb9 82e5 0ebb 2684 a3bb
00000390: a1f8 14bb edd2 6d36 c3af 1539 698e 5e38
000003a0: 0626 99bb 2a81 b73b 0041 3c3b 268b 14b9
000003b0: 3803 dab7 57dc f438 5132 2dba 4f45 42bc
000003c0: 2ce2 9a3a c95a 2a3c c82a 14ba 960a e837
000003d0: 31c8 f737 4853 a637 ba41 3f38 8199 5336
000003e0: d685 22bb 00c8 87ba 6281 e6b7 8471 2035
000003f0: 8bee 9436 498b f63a 7158 83bb 04b2 44bc

momentum_buffer f4 [62]
-0.0032699553 0.014403831 0.0043330635 0.00014002767 0.007975407 -0.0075277593 0.0040705074 0.00014287079
0.00043200146 0.0058542006 -0.0006046889 9.283934e-05 0.0007961086 0.00016220918 0.00011912667 0.0002931765
-0.008409112 0.00043767068 0.0023275341 0.0013194482 -0.008265359 5.0780793e-05 0.00028704252 0.001188467
0.0008363946 0.005231094 0.0002750234 0.0006446276 0.021360196 -0.0011532591 0.0034736034 0.0013701613
1.1788616e-05 0.0008255046 0.0005585347 -0.0076948167 -0.0014779378 0.002811371 0.00048458914 -0.0018360204
-0.0010528069 0.00070150406 0.007893439 0.000271792 0.00029897594 0.005705949 -0.0038965794 -0.023384467
8.757335e-05 -0.000396052 0.0021735535 -0.0056441077 -0.012554213 0.00023777233 -0.013243977 0.00094394357
-0.004788841 0.00024854767 3.90813e-06 0.00012660467 0.00029334307 0.0039038663
00000000: bf4c 56bb 0cfe 6b3c 5ffc 8d3b 64d4 1239
00000010: 48ab 023c 6cab f6bb e461 853b 96cf 1539
00000020: 417e e239 98d4 bf3b fc83 1eba beb2 c238
00000030: f2b1 503a b216 2a39 a5d3 f938 7cb5 9939
00000040: 5fc6 09bc 2a77 e539 8b89 183b 56f1 ac3a
00000050: 6e6b 07bc 76fd 5438 327e 9639 56c6 9b3a
00000060: 7e41 5b3a 9969 ab3b 0431 9039 3afc 283a
00000070: 94fb ae3c f428 97ba 65a5 633b fc96 b33a
00000080: b8c7 4537 ad66 583a a16a 123a cd24 fcbb
00000090: 5db7 c1ba fb3e 383b 7410 fe39 9fa6 f0ba
000000a0: 56fe 89ba 24e5 373a 7c53 013c 4e7f 8e39
000000b0: dfbf 9c39 f8f8 ba3b c15d 7fbb c890 bfbc
000000c0: 96a7 b738 33a5 cfb9 2d72 0e3b 35f2 b8bb
000000d0: 30b0 4dbc 8652 7939 44fd 58bc fb72 773a
000000e0: b6eb 9cbb 814f 8239 9522 8336 2fc1 0439
000000f0: d7cb 9939 02d8 7f3b
